project2/mnist/part2-mnist/mnist_model_fully_connected.pt (torch, 409559 bytes, 4 tensors)

weight f4 [128, 784]
00000000: 72dd f13c 3023 d8bb 8559 0fbd 3c59 283c
00000010: 4d72 073d fe56 fe3c e016 10bd d9ab 033d
00000020: b895 313c ffb2 06bd 7f70 0c3d 50a6 013b
00000030: 8255 a03b 7f55 613c b38b 2f3c efda aebc
00000040: 8086 a73c 78f4 ce3c 4ed1 96bc 2461 8d3c
00000050: b017 d0bb 9ebc bdbc aef5 60bc c000 89bb
00000060: 45f0 a0bc 2e75 a43c de4d ac3c aaa7 8abc
00000070: f09e b5bc 00a0 d536 e019 003c d042 af3c
00000080: a86c 99bb 1368 bbbc 9f59 aeb8 5208 de3c
00000090: 55c5 673c 2397 f83c 596c 3b3b 6093 c2bc
000000a0: b756 d8bb dd59 04bd 5676 003d be90 3dba
000000b0: 338a 653c 8573 dd3b 84db 98bc 6198 383b
000000c0: 99fa 243c fac5 0ebd 6f22 c8bc a1fb 0e3d
000000d0: 24b1 913c 50d0 8d3c e023 6cbc 88ab 09bd
000000e0: 7817 6ebc aa64 b5bc aec8 5fbc 3725 103d
000000f0: d4d3 da3c 869e ca3c 4e8f f3bc cd65 5e3c
00000100: 76b8 abbc 3f81 02bc 1088 c53c ff5e dcbb
00000110: 9e22 033d 8d3f 553c 41e2 7cbc 42cd 4abc
00000120: 8944 4a3c abba 76bc 31b7 2abd 405c 793b
00000130: 5f1b 503c de86 843c 0b2c bfba c4b8 b83b
00000140: 86da 193c d73a c7bc e89b f93b b2c9 1bbc
00000150: 481f a53b a04a 133c ac84 f4bc 637a 053d
00000160: e5cd 003d 8b5b 01bd c598 11bc 0195 6a3c
00000170: 6e24 35bc ce7a a4bb ec91 2abd 7e95 fe3b
00000180: a160 7fbd ddb1 0bbc d03e 7fbd 498f 3dbd
00000190: e50d cdbd bd2c b2bd c6dc c4bd e1f3 35bc
000001a0: a9eb 81bd cc51 3cbd 46ad 0538 aac7 03bc
000001b0: 0d0f 88bb 5622 9fbc f684 98bc 5377 ddbc
000001c0: 860e 12bd 52b4 c4bc 6f49 9c3c df8c e33b
000001d0: 7858 aabc bdef d43c 3adb 7bba aebf 0dbd
000001e0: 8681 38bd da1b a5bc 0867 88bd 549e 99bd
000001f0: 03f9 f5bd 6cde 20bd 4461 a1bd b8e5 acbd
00000200: 5ea2 12bd e587 c63b 4ceb 963c e02d fc3b
00000210: bafe 91bc 31f8 c1bc 49ef 08bd 0068 27bd
00000220: 8206 cbbc 06cc 9bbc 2f25 02ba d58b 023d
00000230: 90d5 223c 4118 f0bc e2fe 593c ba9f adbb
00000240: 541d cabc efa2 983c a5f5 ccbc 0d8c 51bd
00000250: ae10 7b3d b61d 143d d929 b6bd 0d2f 14bd
00000260: 6126 02bd ef16 c9bc 5fc4 533c 7de3 c43c
00000270: e24e 583d 5d10 8d3b e7eb b7bc de63 02bc
00000280: 90d0 81bc 2a3d 0fbd 260e 563d 3541 8fbb
00000290: de47 af3c 25c8 91bc 21b9 093d 0892 bdbc
000002a0: 600b 0fbd eaf4 babc 3f8e b13c 3b7b 9f3c
000002b0: d753 7f3c 5408 853c b6cb dbbc 75fa 74bc
000002c0: 588c 513b 8e61 32bc 148a 95bc e7d2 343d
000002d0: 7a94 c63d 2ab2 1f3d 3d03 cdbc 7df2 0bbd
000002e0: 5790 43bd 681f 753d 34fd b23a 4024 853c
000002f0: 9a5b d6bc 55cb ac3d 8778 293d 0e30 a33b
00000300: 7b1a df3c 438f 65bc d2c0 63bb 74fa a9bb
00000310: de6e 963b 2644 89bc ca6e 023c 08e4 b13c
00000320: 5445 c63c da1f 383c 8c84 403c e398 2cbc
00000330: ebfb 7d3c c157 6e3c c1a5 37bd 9fc9 cabd
00000340: d39f 4e3c b795 92ba b3e6 8dbd 4dd5 8ebd
00000350: 96ca 62bb e434 1bbc 0111 fa3d c61c bb3d
00000360: 86a8 8d3d dc99 143e b24b fc3d e275 6e3d
00000370: 495b 05bd e959 783c 0ff7 e7bc 1741 7dbc
00000380: fb0e 6fbc d27f 28bc a7a3 d83c 85c6 a53c
00000390: 64c2 e23d 208c c03d 607e 593d 07f6 d63d
000003a0: 9374 b33d e023 203d 8206 b63b 0c19 f8bb
000003b0: 17dc e13c 8e03 913d 8f03 d43c f095 16ba
000003c0: eef7 25bc 9887 f43c d8db 483d d728 fc3d
000003d0: bf40 fb3d 98c9 ba3c 3873 b73d 94ad c83d
000003e0: adef febc 7460 25bd 5281 dc3b 25de 9ebc
000003f0: 50a3 29bc 0d1a 45bc 2348 903c 309e bc3c
0.029524539 -0.0065959916 -0.03499748 0.010275181 0.03306799 0.03104734 -0.035178065 0.03214631
0.010838918 -0.032885548 0.034286972 0.0019782968 0.004893006 0.013753294 0.010714459 -0.02134463
0.020449877 0.025263056 -0.018410351 0.017258234 -0.00635048 -0.023161229 -0.01373045 -0.0041809976
-0.01964582 0.020075407 0.021033224 -0.016925652 -0.022170514 6.366521e-06 0.007818669 0.021394163
-0.0046821423 -0.022876775 -8.31366e-05 0.027103577 0.014146169 0.030345505 0.0028598516 -0.023751915
-0.006602134 -0.032312263 0.031362854 -0.0007231346 0.01401 0.0067581558 -0.01865936 0.0028166997
0.010069513 -0.034856774 -0.024430482 0.03490794 0.017784663 0.017311245 -0.01441285 -0.03361085
-0.014531963 -0.022142727 -0.013658686 0.03519174 0.026712336 0.024733793 -0.029731419 0.013574076
-0.020961981 -0.007965385 0.024112731 -0.0067251916 0.032015435 0.01301564 -0.0154348025 -0.012378039
0.012345442 -0.015059154 -0.04167861 0.003804937 0.012701838 0.016177591 -0.0014585269 0.00563726
0.009390479 -0.02432005 0.0076174624 -0.009508537 0.0050391294 0.00898996 -0.02984842 0.03258742
0.031446356 -0.031581443 -0.008886521 0.014317752 -0.011056049 -0.0050195223 -0.04164307 0.0077692857
-0.062348012 -0.008526293 -0.062315762 -0.046279225 -0.10012416 -0.086999394 -0.09612422 -0.011105509
-0.06343777 -0.045976445 3.1871044e-05 -0.008043209 -0.004152185 -0.019425552 -0.018618088 -0.027034437
-0.035658382 -0.024011765 0.019077985 0.0069442834 -0.020794138 0.025993222 -0.00096075574 -0.034606628
-0.0450454 -0.020154882 -0.06660277 -0.07500902 -0.12010386 -0.039274618 -0.0787988 -0.08442253
-0.035799377 0.0060586804 0.018422745 0.0076958984 -0.017821658 -0.023677917 -0.033431325 -0.040870667
-0.024783377 -0.019018184 -0.0004964647 0.031871635 0.009938613 -0.02930844 0.013305398 -0.005298582
-0.024672188 0.01863238 -0.025019476 -0.051158953 0.061295204 0.036161147 -0.088947006 -0.036177684
-0.031774882 -0.024547068 0.0129252365 0.024034256 0.052809604 0.004304929 -0.022451354 -0.0079583805
-0.01584652 -0.03497044 0.052259587 -0.004371787 0.021396574 -0.017795632 0.03362382 -0.023140922
-0.034922957 -0.022821862 0.021674274 0.01946794 0.015583954 0.016239323 -0.026830535 -0.014952292
0.003197452 -0.010887517 -0.018254317 0.044146445 0.096962884 0.03898827 -0.025025958 -0.0341668
-0.047745075 0.059844404 0.0013655783 0.016252637 -0.026166726 0.0843722 0.04137471 0.004980094
0.027234307 -0.014011207 -0.003475238 -0.005187327 0.004590853 -0.016756129 0.0079609845 0.02171518
0.02420298 0.011238063 0.011750352 -0.010534498 0.015501956 0.014547289 -0.04483581 -0.099017374
0.012611347 -0.0011183535 -0.06928768 -0.06974278 -0.0034605614 -0.009473059 0.122102745 0.091363475
0.06916909 0.14511818 0.12319125 0.05821789 -0.03255776 0.015158155 -0.028316049 -0.015457413
-0.014590974 -0.010284381 0.026445223 0.020236263 0.11072233 0.09401727 0.053099036 0.10496145
0.08762469 0.039096713 0.005554975 -0.007571345 0.027570767 0.07080756 0.025880603 -0.00057443883
-0.010129912 0.029849812 0.049037784 0.12312477 0.12268209 0.022801206 0.08957523 0.097987324
-0.031120146 -0.040375188 0.0067292834 -0.019393036 -0.010353878 -0.012030137 0.017612522 0.023024648

bias f4 [128]
00000000: 9f57 d8bd 3e21 98bc c510 453d 0351 563c
00000010: 35bf 903d 8140 35bc 778c e8b8 6368 f1bd
00000020: 0cdb f53d 5e0e 323d 598b f2bd 1b87 783d
00000030: 9f0a 6c3d 05f1 9d3d ee8e debb b509 f63d
00000040: 4d34 a73d d94c a53d 710a 58bc dac3 8d3d
00000050: 7b30 c8bc 312c 05be ebc9 95bd 2301 da3d
00000060: ccea 7d3d c6bd c5bc 3eb5 1e3d 3f82 f6bc
00000070: 8b6e 15be 4e0d 86bd 0063 c63d 4624 1ebe
00000080: 11f2 0f3e 0836 2b3e f9f7 e13c 4581 f83d
00000090: f232 913c 56e8 813d 5bdb 633c 9c4f f5bc
000000a0: 2880 6abd 9d9f cc3c 0824 e6bc 41ff b0bd
000000b0: 2c86 54bc 03e4 003d d218 55bd 015a 54bc
000000c0: 72ef 7e3d 54f8 f3bb 6552 a93e 2f7e 593e
000000d0: 2476 2bbd 13f0 5bbd 8859 933c 0cf2 353d
000000e0: 40ff 03bc b29f 4b3c 7870 d43d 844f 9139
000000f0: 23f4 b4bd ec09 b9bd b29a 323d 87e0 ec3c
00000100: db7c 1a3e ae67 d73d b328 ef3d 1ec6 723e
00000110: 82cf a93d e855 603d eed8 443e c8c3 0ebe
00000120: c869 2a3e f209 343e eb8b 143e 8b70 ab3c
00000130: 66a9 ad3d fa6f d03d 8c77 683d 3b69 b63d
00000140: cca9 503d 6669 593e 485f dd3d 4858 433d
00000150: f85e 2b3d 2552 4ebd a621 143e 9e80 d93c
00000160: 8aa8 683d 451e 12bd f2ad 873c 6e38 a73d
00000170: d9a5 8abd da6f 84bd 16ef ab3c 2bb2 fb3d
00000180: f11d e7bb 4c05 93bd 4992 e03c 3b95 3ebe
00000190: f3bd 7e3d f555 833d 275a fa3d 4160 77bb
000001a0: e286 e33d 0a29 4abd 0f88 6b3d f70c f9bc
000001b0: ab29 213d 5b0e d63b c628 263e 671b c0bd
000001c0: 3cd4 1d3e 6de3 2ebd b6be c23c befd 383c
000001d0: d335 66bd 9307 0c3e 5aa1 8e3e f590 c33d
000001e0: 5a31 4bbc e8f3 183d 2960 2d3e 2003 37bd
000001f0: 8927 723d 7ca2 9c3d ed92 2c3d 7f2c 453d
-0.105635874 -0.018570539 0.048111696 0.013080838 0.0706772 -0.011062742 -0.00011088786 -0.11787488
0.120046705 0.043470733 -0.11842985 0.06067572 0.057627317 0.077119865 -0.006791941 0.1201357
0.081642725 0.08071298 -0.013186083 0.06922121 -0.02443718 -0.13005139 -0.073139034 0.10644748
0.061991498 -0.024138343 0.038747065 -0.030091403 -0.1459295 -0.065455064 0.096868515 -0.15443525
0.14057185 0.1671983 0.027584063 0.12134031 0.017724488 0.06343143 0.013907279 -0.029945187
-0.057251126 0.024978453 -0.028093353 -0.08642436 -0.012971442 0.03146745 -0.052025624 -0.012960912
0.06224007 -0.0074453745 0.33070675 0.21239541 -0.041860715 -0.05369575 0.017987028 0.044420287
-0.008056462 0.012428211 0.10373014 0.000277158 -0.08835628 -0.090350956 0.04360456 0.028915657
0.15086691 0.10517822 0.11677685 0.23708388 0.08291532 0.054769427 0.19223377 -0.13941872
0.16641915 0.17581919 0.145065 0.020927688 0.08479576 0.10177608 0.056754634 0.0890679
0.05094318 0.21231613 0.10809189 0.047691613 0.041838616 -0.050371308 0.14465961 0.026550587
0.056801356 -0.0356734 0.016562436 0.0816506 -0.06769914 -0.064666465 0.020988028 0.12289842
-0.00705313 -0.07178745 0.027413504 -0.18611614 0.06219287 0.064128794 0.122242264 -0.003774658
0.11109711 -0.049355544 0.057502802 -0.03040169 0.03934638 0.006532473 0.16226491 -0.093802266
0.15412992 -0.04269736 0.023772579 0.011290966 -0.056203675 0.13674764 0.27857476 0.09549133
-0.012401903 0.037341982 0.16931213 -0.044680715 0.059119735 0.07648179 0.042132307 0.048138138

weight f4 [10, 128]
00000000: 8d7a 0ebf 5172 8dbd 6527 af3e 1b3b b03d
00000010: 907e 0c3f 5027 483c e0c9 29be 491d a93e
00000020: 2a4a a5bd f4b7 12be f811 cabe 9492 02bf
00000030: 96cf 003f d447 6d3c aea6 af3d b142 6abe
00000040: 29fb b8bd 4d16 84be 72c1 a8bd 6007 febd
00000050: 4958 783e 7017 693e a55c 34be 3aeb 093e
00000060: 1b77 d3be e4ec d6be 58c0 2d3d bc5d 3c3c
00000070: ee7b 1bbf 421a 093e 73f0 133f ce9d d23e
00000080: 5466 f93e a79d cd3c 6143 973e da78 c4be
00000090: 6707 6b3e f19f 863e f76b e53d cd67 31bd
000000a0: 5207 f33c 8f7f cfbd 7122 dcbe 91fb 86be
000000b0: f40f 0fbf d82b e63d c72b 343e b7a3 993e
000000c0: 8081 49bd 9b73 d53e 0533 fabd 8c4a 65be
000000d0: b996 e73e d914 c83e 690c b43e 0226 353e
000000e0: 0618 0a3e 5d6f 6b3d d33e afbe 1f6f 40bd
000000f0: 6930 873e 6315 abbe b38e c03c 44f6 f23d
00000100: 2af6 443d 9544 593e 993e 3d3e c8c2 e6be
00000110: 296e 713e 3d8c 6ebe c3b1 9a3d a729 0fbe
00000120: b9a6 86be 4ea2 243f 5369 e7bc 9a96 45be
00000130: 6142 943e a900 e93c a8d8 79be 5b56 06bf
00000140: b032 3cbf 86c8 0e3f 0ebe e1be 5213 aebe
00000150: 65e8 e5bd 99ec fcbd 7ed2 ad3e 2983 9dbd
00000160: 8f3d 5ebe ec20 d73e 638e 8a3e 905f c13e
00000170: f11b bf3e ab3f 84be 375a 6bbd 0810 91be
00000180: 38ef da3d d58f e2bd 278b 863d 9452 273e
00000190: dc98 7bbd fce3 96be c97f a83d 7537 13bb
000001a0: 687f b6be f70f 3ebe c151 6bbd eeac eebe
000001b0: bd3b cfbe f0b8 0ebf d484 b2be 52f6 47bd
000001c0: d151 a0be 6573 9b3d 2012 bbbe 4616 0cbd
000001d0: 7391 9fbe a1c3 6fbe 714f 0dbd a47b aebe
000001e0: 584f 1ebd 026f d13b 5447 f0be ab0e 9a3d
000001f0: 9ba5 58be b277 5ebe bda8 7a3e 32ae efbc
00000200: d8ef c73e 428e d0be 6cb5 973e e340 b6be
00000210: 0e99 8cbe 1d4f 063f e8da 8b3d bc42 4dbe
00000220: e1ba 813d e52e c0be a4c1 883e 43ef cc3e
00000230: 686d dabe e408 18be b209 1d3e 34a5 98be
00000240: 662c cd3e dcd2 9cbe bc03 003d 8f62 133e
00000250: fe70 7abe f980 6b3e d50d 5f3e 55c7 a6bc
00000260: ca22 823e eb3f 7abe 6d41 d3bd c67b e83e
00000270: f249 9f3e a9d6 3cbd c7b6 eebe 32fa 4ebd
00000280: ee37 99be f647 723f 83b2 1dbf 6f97 883e
00000290: 8b9b c1be a545 7bbe 1511 f4be 194f 4cbe
000002a0: eb1c dd3d 228b 4c3f f0f1 f53c eb9e 563e
000002b0: adf0 fe3e 9c75 4dbd 3c4e 7abe 03de 24be
000002c0: beae 9b3e 74ec 8e3b 450a 133f fa64 6bbe
000002d0: 2112 93be 8dc8 913e 9fe6 b23d 195d 403e
000002e0: 288c adbc 4375 58bc 3659 d2be 98de 383d
000002f0: ee1e 64be bffb 47bd 3c1c 973d 7bcb 90bc
00000300: 93e5 a83e 4d02 a4be 33d2 653c 6b7b 07bf
00000310: 6d5c b9be e926 893e d93c 0dbe ca1a 72be
00000320: 8981 80be e542 98be 27fe 42be d89c 743e
00000330: 7b27 8cbd 67c0 13be 2d9f b7bb 39d2 a7be
00000340: 7b77 163f ddca 5d3e 424c ca3d 7b00 863e
00000350: 8975 75bd 1e8c 76bd 98f5 e2bd 5f4f 7f3e
00000360: e3ee 393f 1b6d ecbe 849c 3abe aefb 0cbe
00000370: fee0 883e a172 a63e 9b87 62bd b4d3 613e
00000380: 0f43 dcbe eea9 eebc b4c2 99bd 1433 15bf
00000390: 884b ca3d 798d 0b3e 09e4 30bd 9c89 4f3e
000003a0: ef45 623e 49fd f03e dc0a 3cbe 0e19 343f
000003b0: f2c0 d1be 6bb2 45be 2879 803d d1d9 1fbe
000003c0: c356 d8bd 2501 90be 0076 7abc c174 13bd
000003d0: 3ee7 3ebc 296d 07bf afcd 6cbd c2a3 db3e
000003e0: 0272 dabd 6ce6 d4be 85ff f43e a21d 9e3c
000003f0: cf1c debc f2a7 e1bd 8c28 9dbe 1d63 143d
-0.5565575 -0.0690657 0.34209743 0.086050235 0.5488062 0.012216404 -0.16580915 0.33030155
-0.08070786 -0.14327985 -0.39466834 -0.5100491 0.5031675 0.014482457 0.085767135 -0.22877003
-0.0903228 -0.25798264 -0.08240022 -0.124037504 0.24252428 0.22762847 -0.17613466 0.13468638
-0.41301808 -0.41977608 0.04241976 0.011496957 -0.60735977 0.13388923 0.5778877 0.4113602
0.48710883 0.025099589 0.29543594 -0.38373452 0.22952043 0.262939 0.11202233 -0.043311883
0.029666577 -0.10131752 -0.42995027 -0.26363805 -0.5588372 0.11238831 0.17594825 0.30007717
-0.049195766 0.41689762 -0.122167625 -0.22391719 0.4523218 0.39078405 0.35165718 0.1769028
0.13485727 0.05747925 -0.3422762 -0.046980973 0.26404122 -0.33414754 0.023505544 0.11863378
0.048086323 0.21217568 0.1848091 -0.4507048 0.23577179 -0.23295684 0.075534366 -0.13980733
-0.26299074 0.6431016 -0.028248465 -0.19295731 0.28956893 0.028442698 -0.24399054 -0.5247552
-0.73514843 0.55774724 -0.44090313 -0.33999115 -0.11225966 -0.12349815 0.33949655 -0.076910324
-0.2170317 0.42017305 0.27061757 0.3776822 0.37326005 -0.25829825 -0.057459082 -0.28332543
0.106901586 -0.1106259 0.0656951 0.16340095 -0.061425075 -0.29470813 0.08227498 -0.0022463475
-0.35644078 -0.18560778 -0.057451013 -0.4661631 -0.40475264 -0.5575094 -0.34866965 -0.048818894
-0.3131242 0.07590369 -0.36537266 -0.03420093 -0.31165656 -0.2341447 -0.03449959 -0.34078705
-0.038649887 0.006391407 -0.4692942 0.07522329 -0.21156923 -0.21725348 0.24478431 -0.029257867
0.39050174 -0.40733534 0.296306 -0.3559638 -0.2746052 0.5246447 0.068288624 -0.20044988
0.063344724 -0.37535778 0.26710236 0.40026292 -0.42661595 -0.14847142 0.1533573 -0.2981354
0.40072936 -0.30629623 0.03125356 0.14393066 -0.24457166 0.22998418 0.2178262 -0.02035872
0.25417167 -0.24438445 -0.10315213 0.45406932 0.31111103 -0.046103153 -0.46623823 -0.050531574
-0.29925483 0.94641054 -0.6160051 0.26678035 -0.37813982 -0.24538286 -0.47669283 -0.19952048
0.10796531 0.798998 0.030022591 0.2095906 0.49792996 -0.05016099 -0.24443907 -0.16100316
0.30406755 0.0043616835 0.57437545 -0.22987738 -0.2872477 0.2847332 0.08735394 0.18785514
-0.021184996 -0.013211551 -0.41083688 0.045134157 -0.22277424 -0.04882407 0.07378432 -0.017675152
0.3298765 -0.32033005 0.014027166 -0.52922696 -0.36203328 0.267875 -0.13792743 -0.23643032
-0.25098827 -0.29738536 -0.19042264 0.23887956 -0.06843468 -0.14428864 -0.005603692 -0.32777575
0.5877606 0.21659417 0.09877826 0.26172242 -0.059926543 -0.06019222 -0.110819995 0.24932621
0.7263014 -0.4617699 -0.18223768 -0.13767883 0.26734155 0.3250933 -0.055305105 0.22053415
-0.43019912 -0.029133763 -0.0750784 -0.58281064 0.09877688 0.13628186 -0.04318622 0.20267338
0.2209699 0.4706824 -0.18363518 0.7035073 -0.40967518 -0.19306342 0.06273109 -0.15610434
-0.105634235 -0.28125873 -0.015286922 -0.036000017 -0.011651812 -0.5290094 -0.057813343 0.42898375
-0.106662765 -0.41582048 0.47851196 0.01930124 -0.027113346 -0.11018361 -0.30694997 0.036227334

bias f4 [10]
00000000: c3e7 95be 8553 6a3e 1c5c c1bd 4ce5 24be
00000010: 42d7 193e a7de 873e 217f a8bd db68 273d
00000020: 45e6 2b3e 589b 51bc
-0.29278383 0.22883423 -0.094413966 -0.16103095 0.1502352 0.26537058 -0.08227373 0.040871482
0.1678706 -0.0127933845
