project2/mnist/part2-twodigit/mnist_model_fully_connected.pt (torch, 822719 bytes, 8 tensors)

weight f4 [32, 1, 3, 3]
000000 1b 8d 83 3e f9 19 81 bd 0d 17 87 bf de 90 54 3e
       0.25693592 -0.06303782 -1.055391 0.20758387
000010 99 6f a5 3f 85 d5 b7 3e 9b 98 4d bf f5 f5 62 3e
       1.2924682 0.3590509 -0.8031098 0.22164138
000020 f8 16 aa 3e 79 8a 30 bf 0b 53 a6 3e 0d 79 88 3e
       0.3322065 -0.6896129 0.32485232 0.26654854
000030 17 81 f4 be 9b e4 a9 3e d9 f7 d6 3e 7d a2 b9 be
       -0.47754738 0.33182225 0.41985968 -0.3625678
000040 6e cf e9 3e dc e0 bb 3e 63 73 ce be cd a3 76 be
       0.4566607 0.36694992 -0.40322408 -0.24085923
000050 32 65 cd bd 5a 32 f3 be da be a8 be 57 57 3a 3e
       -0.10029067 -0.47499353 -0.32958108 0.1819738
000060 7b e5 5b be ad d6 e5 3e 35 5f 13 3f a1 5e 79 be
       -0.21474259 0.44890347 0.5756715 -0.24352504
000070 69 26 b3 be a5 f4 af bd 91 59 e5 3d 58 c3 7d 3e
       -0.34990242 -0.08591584 0.11198724 0.24781549
000080 5d 5b 9f bb 57 18 42 be c6 ff 26 3e ad f7 b6 3e
       -0.0048631863 -0.18954597 0.16308507 0.35735837
000090 1d 5e 78 3e 21 30 f6 3e 72 e7 11 be ba 31 80 3e
       0.24254651 0.48083594 -0.14248446 0.25037938
0000a0 b5 f0 31 3d 84 98 2d bf 33 54 12 3f 12 12 fa bd
       0.043442447 -0.67810845 0.5715973 -0.12210478
0000b0 fe fe 3f bd ac a2 15 3e 26 d4 30 bf be 20 a2 be
       -0.04687404 0.14612836 -0.6907371 -0.31665605
0000c0 ff 01 03 3f 59 d0 0f bf b3 4f 55 bf 44 16 6b 3f
       0.5117492 -0.5617729 -0.83324736 0.9183085
0000d0 c4 a8 60 3f 76 fa 5a 3e 50 9f 6f be 2b 80 2c bf
       0.87757516 0.21384606 -0.23400617 -0.6738307
0000e0 ad cb ad be 22 ba 02 bf 2a d9 84 3c 1d b9 42 3f
       -0.33944455 -0.51065266 0.016216833 0.7606371
0000f0 ba 3f 30 3f d1 74 1e 3f 7e 0d 7d be 10 6e 51 3e
       0.6884724 0.61897 -0.24712178 0.20452142
000100 e0 0c fc be 43 96 69 be fd 2d bc 3e 0c 06 a6 be
       -0.49228573 -0.22811227 0.36753836 -0.32426488
000110 db f6 00 3e 2a 56 b5 3e 35 c9 2d bd 57 0b 44 3e
       0.12594168 0.354173 -0.042428214 0.19144951
000120 de 4e cc 3e 6c 61 9e be af c7 75 bf d6 a4 8e 3e
       0.3990392 -0.30933702 -0.9600782 0.27860135
000130 84 0a 2f 3f 74 2d 9e 3d 5c f0 e3 bd ed 40 c6 3e
       0.6837542 0.07723513 -0.11129829 0.3872141
000140 79 b2 a7 3e 14 83 2c be e5 70 53 3e da fc d7 be
       0.3275335 -0.16846877 0.20648535 -0.42185098
000150 3d a5 a6 3e 37 c2 3b 3e e6 82 6c bf bf 3a 29 3f
       0.32547942 0.18335806 -0.92387235 0.66105264
000160 d0 37 16 3f 08 b8 03 bf 00 11 87 bc d4 9b 2e 3e
       0.58678913 -0.51452684 -0.016487598 0.17051631
000170 4a 45 2d 3c f2 8a 1c bd 27 c0 60 be 95 de 8a 3e
       0.010575602 -0.038218446 -0.219483 0.27122942
000180 53 7d a0 be 8f 46 9d 3e 91 e7 77 3b 0f 2e 0d 3e
       -0.31345615 0.30717894 0.0037827233 0.13787101
000190 ab ad c2 be 25 46 2c be 4d 8e 09 bf 53 fb 22 be
       -0.38023123 -0.16823633 -0.5373276 -0.15916185
0001a0 17 c4 aa be 41 ea df bd b9 8f 91 3d 3f e1 83 3c
       -0.3335273 -0.10933352 0.07107491 0.016098617
0001b0 b3 93 99 be 2a 69 69 be ff 09 2e bc ea 6b ba be
       -0.29995498 -0.22794023 -0.0106225 -0.36410457
0001c0 a6 cb ec be 59 5f c2 be 8a 43 f6 3e 79 9a 90 3e
       -0.4624912 -0.3796337 0.48098403 0.28242853
0001d0 4e 3a 6d be a7 25 72 3e b4 13 99 be bc 56 2e bf
       -0.23166773 0.23647176 -0.29897845 -0.68101096
0001e0 a1 e0 72 be f8 2d 9f bd 63 9d 82 be bd 66 09 3f
       -0.23718502 -0.0777244 -0.25510702 0.5367239
0001f0 de 71 b1 3e 42 0d 27 3f 9c c6 c6 be 65 d9 ad be
       0.34657186 0.65254605 -0.38823402 -0.3395492
000200 b4 da 90 3d a2 a3 0f 3f c9 9a 50 3f ee 97 2b 3f
       0.07072964 0.5610906 0.81486183 0.670287
000210 2b 83 36 be 66 18 f9 be 8e f9 32 bf 8e 93 3d bf
       -0.17823474 -0.48651427 -0.6991204 -0.74053276
000220 32 67 54 bf 07 c3 12 bf 43 25 e2 bc 23 f9 a5 3e
       -0.82969964 -0.5732884 -0.027605658 0.3241664
000230 20 1c 91 3e 91 e4 23 3e d0 0e 1e 3f 0b 4a b3 3e
       0.2834177 0.1600516 0.6174135 0.35017428
000240 d1 a9 46 bf 8e f3 8e 3e de 4a e5 3e 1f 4c 5e bf
       -0.7760287 0.27920192 0.44783682 -0.868349
000250 e1 87 fd 3e d0 9d cf 3e d8 3a ea be 08 a4 d0 3e
       0.4951773 0.4055009 -0.4574802 0.40750146
000260 17 70 75 3d 62 b1 7a bf 19 fc 0c 3f 54 80 38 3f
       0.05992135 -0.97926915 0.5507217 0.72070813
000270 2e df 84 bd 42 8e ad 3f f3 49 a8 be ac 15 35 3f
       -0.06487881 1.3559039 -0.3286892 0.70736194
000280 e0 b2 ce 3e 41 ae 8c bf 9c 68 7a 3f de fc 35 3f
       0.40370846 -1.0990678 0.9781587 0.7108897
000290 74 f2 37 3f 6d c4 8d be 28 b9 e9 3e d9 29 3e be
       0.7185433 -0.27688923 0.45649076 -0.18570651
0002a0 68 c9 88 bf e5 67 93 bf 63 48 5e be 92 e0 f9 3d
       -1.0686464 -1.1516081 -0.21707301 0.122010365
0002b0 8a 4a a4 3c 3d af 5a bc 8b 04 5e be cf 17 1d be
       0.020055074 -0.013347444 -0.2168142 -0.15341114
0002c0 77 3e a3 be 06 b7 89 be a0 7d 86 be 04 1d 26 3e
       -0.31883594 -0.26897448 -0.2626772 0.16222006
0002d0 c9 67 2e 3f cd 60 34 3f 11 f9 8e be f5 66 eb 3e
       0.68127114 0.70460206 -0.27924398 0.45976987
0002e0 fb 9d f7 be 56 4f f9 be ca 69 b3 be 1d 02 07 bf
       -0.48362717 -0.4869334 -0.35041648 -0.527376
0002f0 7d 59 5f be 4f 38 e2 3e 78 08 a0 bb 44 41 09 bf
       -0.21811481 0.44183585 -0.004883822 -0.5361521
000300 f6 73 34 3f 6a ae ea be 57 66 a8 be 69 7f d1 3e
       0.7048944 -0.45836192 -0.3289058 0.4091752
000310 21 e5 68 bd 3f 17 8f be f7 a6 93 3c 47 e7 2a bd
       -0.05685914 -0.27947423 0.018023951 -0.04172447
000320 97 5d 3e be 3e 01 53 be 3a c9 41 3e 54 b0 57 be
       -0.18590389 -0.20605943 0.18924418 -0.21063358
000330 ab 28 19 be a6 d5 ab 3d ed f0 b4 bc 65 ef ec be
       -0.1495692 0.083903596 -0.022087539 -0.46276394
000340 65 03 a3 3e b4 fa 2f bc da a7 e9 be f3 b1 96 3e
       0.31838527 -0.010740925 -0.45635873 0.2943264
000350 f4 ad c4 3d 5a 6b d6 be 82 8d a2 3e a9 6a 90 bd
       0.096034914 -0.41878778 0.31748587 -0.07051594
000360 b7 d4 60 bd ad 77 1a 3f 1e e9 d3 3e ce 99 5c be
       -0.05489036 0.6033886 0.41388792 -0.21543047
000370 d9 30 b0 3d 50 77 34 3f 4d d7 41 bf 49 a6 32 bf
       0.08603067 0.70494556 -0.7571915 -0.6978498
000380 74 5e 1e be 83 5c 23 be 8d d7 86 3e 1b 03 70 be
       -0.15465719 -0.15953259 0.26336327 -0.23438685
000390 65 4a 81 3e 05 c0 cd 3e 08 7a 1e be cf 20 38 bd
       0.2525207 0.40185562 -0.15476239 -0.044953164
0003a0 a1 1e 0a 3e 96 97 72 3d 8b 12 a7 be c1 79 81 be
       0.13488247 0.059226595 -0.32631335 -0.25288203
0003b0 c0 0c 2c be f2 80 d6 3e 04 46 85 be cf 39 0a bf
       -0.16801739 0.41895252 -0.2602998 -0.5399446
0003c0 46 ef 18 bd 01 f6 00 3f a3 88 2f 3f a1 1d 90 3e
       -0.037337564 0.5037537 0.68567866 0.28147605
0003d0 10 70 07 bd 03 3f 76 be ff bf 5b 3d aa e8 65 3e
       -0.033065856 -0.24047475 0.0536499 0.22452036
0003e0 a5 db 29 be be d5 a7 be ce ef 6d bd 41 1f 63 be
       -0.16587694 -0.3278026 -0.058090024 -0.22179891
0003f0 b7 20 19 bf d6 0b 19 bf 8f 7b b1 3d 98 4e 09 bf
       -0.59815544 -0.59783685 0.08666145 -0.5363555

bias f4 [32]
000000 36 09 7e bd 0d 37 fb bc 1e 35 88 3e 60 40 00 be
       -0.062020503 -0.030665899 0.26603025 -0.12524557
000010 8b 80 26 be 14 fe ed bd 85 bc 85 3b a5 bd 7c bc
       -0.16259973 -0.11620727 0.004081311 -0.015426074
000020 c8 29 29 be 3f d7 6a 3c 6a e6 8a be a5 21 80 3f
       -0.16519845 0.014333545 -0.27128917 1.0010267
000030 75 8d ca 3e 6b ff 01 bd 47 61 33 bc ac 38 5c 3e
       0.39561048 -0.031737726 -0.010948486 0.21505994
000040 54 76 9a 3b 2c d2 0b bf 7c be ac bb db 9c 07 be
       0.004713813 -0.5461757 -0.005271731 -0.1324343
000050 95 48 7d 3e 12 ff f1 ba 57 53 c1 bd b1 24 a9 3e
       0.24734719 -0.0018462858 -0.09439724 0.33035806
000060 29 1f c1 bc b8 a9 d3 bd af 81 2e bb c2 f4 fa bd
       -0.023574429 -0.10335106 -0.002662759 -0.12253715
000070 0c 88 18 be 54 67 5d be 0e 51 49 be 02 2c 9e 3d
       -0.14895648 -0.21621448 -0.19659826 0.077232376

weight f4 [64, 32, 3, 3]
000000 49 16 c6 bc 1e f4 44 3d 3e df ca bc 0c de 2d 3d
       -0.024180548 0.04808437 -0.024764653 0.04244809
000010 47 a1 45 bd 39 57 5c bd 7d 4d 1e 3a 0e 63 af 3c
       -0.04824951 -0.05379412 0.00060387683 0.021409538
000020 e3 ba bd 3c 1f 97 47 bd 2d 91 9d bc 86 04 0b 3d
       0.023160404 -0.048728105 -0.019234264 0.03393986
000030 1d 66 74 bd ac 60 06 3c a8 c2 47 bc 4c 8f 48 3c
       -0.059667695 0.008201759 -0.012192406 0.012241196
000040 d6 b7 08 3c f8 35 6f bd 9c 14 ef 3c 53 f1 1e bd
       0.008344611 -0.058401078 0.029184632 -0.038804363
000050 64 90 84 bc 5a 9b c1 bc ce 30 ff bc 35 3f 4d 3d
       -0.016182132 -0.023633648 -0.031151202 0.050109107
000060 0b af 07 bd e9 ac 44 3d 28 e4 88 bb d2 4e 53 3d
       -0.03312592 0.048016462 -0.004177589 0.05158884
000070 97 a2 3f bc ae 2d 6d bb f5 fa 69 3d 2c 52 4e bd
       -0.011696479 -0.0036190557 0.057124097 -0.050371334
000080 b0 ab 00 3d 07 74 9d bc 62 b9 44 bd 8e 1c 35 3d
       0.031413734 -0.019220365 -0.048028357 0.044216685
000090 53 85 fa 3c 6d fb 0b bd 04 73 2e bd 72 e5 41 bd
       0.030581152 -0.034175325 -0.042590156 -0.047337957
0000a0 21 41 87 3c 13 15 34 bd af 25 1b bc 80 c0 6f bc
       0.016510548 -0.04396541 -0.009469434 -0.014633298
0000b0 6f 45 c2 3c d0 59 6c 3d 73 d4 36 bd f1 32 43 bd
       0.02371475 0.05770284 -0.0446362 -0.047656003
0000c0 b3 d3 fc 3c 8c 86 3b 3d aa 05 25 3d dd 00 55 3d
       0.030862665 0.04578261 0.040288605 0.052002776
0000d0 49 5d bd 3c ee fe 2c bc fe a1 e1 bc 58 3c 1b bb
       0.02311577 -0.010558827 -0.027543064 -0.002368709
0000e0 3c ee 27 3d 37 d3 9d bc ff 69 8c bd 3f b1 00 bc
       0.040998682 -0.019265754 -0.06856155 -0.007854759
0000f0 5a dd 40 bc 23 8f 69 3d d2 11 bf bc 0b 11 ac bc
       -0.011771524 0.05702127 -0.023323927 -0.02100422
000100 56 62 ce 3c 12 b5 38 3d b0 a4 cf bc 33 29 62 3d
       0.025193375 0.045094557 -0.025347084 0.055215072
000110 b1 04 34 3d d5 df 9c 3c e2 bb d7 bb 2d 0d 41 bc
       0.043949787 0.0191497 -0.0065836767 -0.0117829265
000120 94 83 15 3d b4 96 3c 3a 24 39 4b bc 57 c6 81 bd
       0.036502436 0.00071940874 -0.01240376 -0.063366584
000130 9e 67 c2 3c 00 c1 bd 3c 19 02 df 39 cd 32 3f bc
       0.02373105 0.023163319 0.00042535437 -0.011669827
000140 2f f2 e5 ba 24 2b 97 bc 6a 71 89 3a e8 99 f1 bb
       -0.001754349 -0.018453188 0.001048607 -0.0073730834
000150 52 b0 95 3c cd b7 13 bd 6b 84 24 bd 8a fd cb 3c
       0.018272553 -0.036063958 -0.040165346 0.02490117
000160 f2 e4 a3 3b 68 34 62 3d 81 5f 96 3c 48 c9 26 3d
       0.0050016576 0.05522576 0.018356087 0.0407193
000170 2d d1 13 bd 26 fc f0 bb 82 e1 21 bd 07 f9 65 bd
       -0.036088157 -0.007354277 -0.0395217 -0.056145694
000180 a9 f3 f3 ba 59 60 13 bd e4 8a bf 3c 8a ae 1a 3d
       -0.0018612045 -0.035980556 0.023381658 0.03776411
000190 dc 6d 10 bd 4e 1f 13 3c 26 81 0b bd 3c b9 28 3d
       -0.03526102 0.008979632 -0.034058712 0.04119228
0001a0 03 cf 34 bd 70 37 27 3d e7 f7 6e bc dc 90 53 bd
       -0.044142734 0.040824354 -0.014585472 -0.05165182
0001b0 49 7a 27 3d 35 92 d3 bc 1e 73 3d bd 26 46 2f bd
       0.040888105 -0.025826553 -0.046252362 -0.04279151
0001c0 23 0e 51 bd b1 fb 34 3c e2 20 e1 3c 43 6e 4f 3d
       -0.051038872 0.011046336 0.0274815 0.050642263
0001d0 24 0c 46 bd b7 79 bd 3b 1a 2d 51 bd 5c 10 d0 bc
       -0.048351422 0.005782332 -0.051068403 -0.025398426
0001e0 bb 22 a2 bc 7f ae e9 bc 4c 6f c0 3b f1 66 dc bc
       -0.019791951 -0.028525589 0.0058726426 -0.026904555
0001f0 5a ba 19 3b 55 9f 4b 3c 55 19 4d 3d d7 0e 3e bc
       0.0023457021 0.012428124 0.050072987 -0.011600218
000200 34 9b ea bb 60 38 0b bd 79 48 20 bd 87 56 4f 3d
       -0.007159615 -0.03398931 -0.039131615 0.05061963
000210 58 16 58 3d f7 94 ca 3c e5 16 57 bd ff b0 24 bd
       0.052755684 0.024729235 -0.05251207 -0.04020786
000220 3f a2 04 bd 0f e1 45 3d b9 19 9b bc 27 0f 56 bd
       -0.032381292 0.048310336 -0.018933164 -0.052260544
000230 85 c4 41 bd e1 8e ed bc b6 6c 81 bc ee 6b 50 3d
       -0.047306556 -0.028998794 -0.015798908 0.05088418
000240 63 1d fe bc a0 c0 e0 3b 1b 22 20 bd 33 26 41 bb
       -0.031019872 0.0068589 -0.039095026 -0.0029472231
000250 42 58 5f bd 42 46 00 bd 1d 6d 0a 3b 55 b6 ee bc
       -0.05452753 -0.031317003 0.0021122165 -0.029139677
000260 74 b3 93 3c 19 96 f3 3c 04 34 46 bd 92 71 82 bd
       0.018029906 0.029734658 -0.04838945 -0.06369318
000270 1c 42 9d 3c dd 9e 72 bd bf ba 47 bd dd 40 37 bc
       0.019196562 -0.059233535 -0.04876208 -0.011184898
000280 74 54 1a bd ca 5f 37 3d 15 f3 86 3c dd d4 f4 3b
       -0.037678197 0.044769086 0.016473332 0.0074716643
000290 4a 10 99 3b bd 5a 74 bd 81 41 e3 3c 4e e1 2f bc
       0.0046711313 -0.059656847 0.027741196 -0.010734869
0002a0 9c f8 4a bd ae aa 9e 3c 9d 8c 08 3d 7d 41 1a 3d
       -0.0495535 0.019368496 0.033337224 0.03766011
0002b0 4d 11 5a 3d 92 46 cc bc 95 cb 35 bd 01 df 9e bc
       0.053239156 -0.024935994 -0.044383604 -0.019393446
0002c0 68 31 57 bd 24 e3 34 3d 98 c0 32 3c 87 6a d8 3c
       -0.05253735 0.04416193 0.010910176 0.026417984
0002d0 c4 4d ed bc 35 96 38 3c ed 74 74 bd fc 35 fe bc
       -0.028967746 0.011266281 -0.05968182 -0.031031601
0002e0 d2 b1 83 bc 5e 99 ee bc 94 ff 56 bd 8e 06 26 bd
       -0.016076002 -0.029125866 -0.052489832 -0.040533595
0002f0 07 a5 38 bd a6 d9 16 bd c3 2c 32 3d 3c c2 25 bd
       -0.045079257 -0.03682866 0.04349972 -0.04046844
000300 bc 77 4d 3d 6a 8e d1 3c fe ba b5 bc 7b 0c 80 bc
       0.050163016 0.025580604 -0.022183891 -0.015630951
000310 68 76 19 3d 1a 70 5d bd 7e 45 25 3d 8b 5d 6f 3c
       0.037466437 -0.054061987 0.040349476 0.014609705
000320 fa 24 a9 3c 4e 22 45 3c 53 33 5f 3d a3 8a af 3c
       0.020647515 0.012032105 0.054492306 0.021428412
000330 f9 30 d9 bc 6c 83 39 3d 22 5a 59 bc d0 df d6 bc
       -0.02651261 0.04529135 -0.013266118 -0.026229769
000340 b3 8c 36 bd e9 8f 07 bd 6d da e5 bc c7 28 a3 bc
       -0.044567775 -0.033096228 -0.028058255 -0.019916905
000350 5e 25 cc bc 40 fa 6b bd c6 dc b0 bb b5 78 ca 3b
       -0.024920162 -0.057611704 -0.005397412 0.00617894
000360 c7 f2 77 bd b8 25 82 bc bc 27 25 bc 8b 1b 72 bc
       -0.060534265 -0.015887126 -0.010080274 -0.014777075
000370 93 8a 9c bb bc cc b4 3c 88 cf 38 3d 93 00 04 3c
       -0.0047772615 0.022070281 0.045119792 0.0080567775
000380 40 1c 05 bd 83 91 60 bd bd 32 ff 3c 63 fa 12 3d
       -0.032497644 -0.05482627 0.031152124 0.03588332
000390 0e 68 5e 3d df 5c 99 bc 77 a4 5c 3c fb 13 63 3d
       0.054298453 -0.018721042 0.013466946 0.055438977
0003a0 b6 6f 4e bd 88 d8 83 3d 7f 29 4d bd 9a 41 1f bd
       -0.050399505 0.064377844 -0.050088402 -0.038880922
0003b0 75 dd e0 3c 66 36 2f 3d d6 a5 37 bd 6c ad a1 3c
       0.027449349 0.042776488 -0.044835888 0.019736014
0003c0 2e c1 68 3d f2 fb 5a 3d 58 ef b5 bb 5c 58 15 3b
       0.056824856 0.05346293 -0.0055522136 0.0022788262
0003d0 75 55 c3 3b 29 ba e3 bc 02 6b 04 bc 1f 76 c7 bc
       0.005961115 -0.027798729 -0.008082153 -0.024348317
0003e0 3d 7c 79 3c 42 02 b4 3c f7 0a 0c 3d dc c8 50 bd
       0.015227375 0.021973733 0.034190144 -0.050972804
0003f0 d5 ef f1 3c d1 04 5b bd 86 7c 37 3d b5 72 09 3d
       0.029533306 -0.05347139 0.04479649 0.03355666

bias f4 [64]
000000 65 42 0c 3d 1d a1 a6 3c 03 10 14 3d 0b 96 57 bd
       0.034243006 0.020340497 0.036148082 -0.052633327
000010 ce a0 00 bd ee f0 b3 bd db 27 df bd 70 a7 f3 bd
       -0.031403355 -0.08786188 -0.10896274 -0.118971705
000020 fd c3 02 bd ab 8e 3c be 86 96 67 3c f7 7e 21 bc
       -0.03192519 -0.18413799 0.014135009 -0.009856931
000030 4a 25 ec 3c 0a 03 9b bc 95 3c 3f bd 3b 40 9b bd
       0.028826375 -0.018922348 -0.046688635 -0.0758061
000040 45 a8 0c be 91 68 d4 3c 19 f7 33 bd 71 2a 02 bd
       -0.13736065 0.025928767 -0.043936823 -0.031778757
000050 fe 02 f9 bd fd 20 29 bd 1a 27 32 3b aa 84 0c bd
       -0.12158774 -0.041291226 0.002718395 -0.034306206
000060 20 74 c4 bd d4 da 47 bd 9d 26 dc bd 4c 67 18 bd
       -0.095924616 -0.048792675 -0.107495524 -0.037207887
000070 da 83 e5 bd 0c 31 68 bc 77 79 46 3b 50 25 1e be
       -0.11206789 -0.01417185 0.00302848 -0.15443921
000080 3a 0f 12 be 8b f4 44 be 81 75 04 3c ed f8 94 bc
       -0.14263621 -0.1923391 0.008084656 -0.018185103
000090 0b 7d 7d bd d1 67 ad 3c 7f 7e 7e 3c d4 79 57 bc
       -0.06188683 0.021167668 0.015533089 -0.013151605
0000a0 a7 cb 8a bc 3f da 0c be 06 87 0c be 34 b9 25 bd
       -0.016942812 -0.1375513 -0.13723382 -0.040459827
0000b0 2f 70 86 bd 2d 95 72 39 9c da 48 3d 3d 9e 8e bc
       -0.06564366 0.00023134491 0.049036607 -0.017409438
0000c0 87 20 cf bb 5a 56 8f bd 1a cf 6c bc 40 b0 d0 bd
       -0.0063210162 -0.06998892 -0.014453674 -0.10189867
0000d0 82 78 db bd 22 1d 0e be e2 f6 7a bd f9 83 23 bd
       -0.107163444 -0.13878301 -0.061270602 -0.03992078
0000e0 a0 50 ea bc c5 04 96 bd bd 32 1c bb 87 0c 90 bd
       -0.028602898 -0.073251285 -0.0023833953 -0.070336394
0000f0 70 db d0 bc db 81 b6 bd f1 ef fd bb 60 87 5b 3d
       -0.025495261 -0.08911487 -0.0077495505 0.0535959

weight f4 [64, 2880]
000000 93 54 6a bc 9b 0b fa bb e0 2b 80 3c 97 ed db ba
       -0.014302391 -0.007630778 0.015645921 -0.0016779181
000010 ae f6 4d bc 74 1c 96 3b c0 58 ea bb c6 a8 32 bc
       -0.01257102 0.0045810286 -0.007151693 -0.010904497
000020 83 7a a6 bb 4d ae e7 3b 10 66 4f bc 75 4e 88 bc
       -0.0050805225 0.007070339 -0.012658611 -0.016638974
000030 28 7b 64 bb ad 0c 3f 3c e4 1e 04 3c 4a 95 c3 3b
       -0.0034863446 0.011660737 0.0080640055 0.0059687244
000040 fa dd 9c 3c b4 94 5c bb 51 a0 a7 3a be 60 6e 3c
       0.019148815 -0.003365797 0.0012788867 0.014549432
000050 7b 0d f6 bb 4b d8 b7 bb 9b 18 88 3b bb 94 33 bc
       -0.007508931 -0.005610501 0.004153324 -0.010960753
000060 34 b1 bc 3b 29 4e 51 bc f5 d3 58 3b ee 52 1c 3a
       0.005758429 -0.0127749825 0.003308532 0.0005963285
000070 d3 52 17 3c 31 5b a1 bc d1 5a 68 bc 70 57 a5 ba
       0.009236055 -0.019696804 -0.014181809 -0.0012614559
000080 89 b8 2d 3b 60 60 8b 3c f5 2d 1a bc 4a 4d 64 3b
       0.0026507697 0.017013729 -0.009410371 0.0034836107
000090 2f 0d cf bc 7b 9c 07 3c a1 ac 75 3c 2d f0 65 3c
       -0.025274841 0.008277054 0.014994771 0.014034313
0000a0 3c b3 56 bc 4e 87 0a bb 50 0c dd ba 8c 34 5e bb
       -0.013104256 -0.0021137777 -0.0016864631 -0.0033905832
0000b0 d1 e9 e7 3b 7f 82 17 3c aa 5e 11 bc 78 99 6c 3c
       0.0070774336 0.009247421 -0.008872667 0.014440887
0000c0 d0 bd 5b 3c 29 1e 72 bc e3 02 fb bb cf f2 28 3a
       0.013411954 -0.014777699 -0.0076602562 0.00064448727
0000d0 0e 31 8b 3c 5d 53 55 bc 25 2d 06 3c e2 fe 16 bc
       0.016991165 -0.013020364 0.008189474 -0.009216042
0000e0 d0 4f 43 bc 16 da 93 3c b9 5d a9 3b bb 2a 3d bb
       -0.011920884 0.018048327 0.0051686433 -0.002886458
0000f0 c9 eb cd bb 4e 37 0e bc c2 cd 63 bc a7 3d 3b 3a
       -0.0062842113 -0.008680178 -0.013904037 0.0007142671
000100 85 4c db bb a6 44 44 bc f9 31 a7 39 57 e2 62 bc
       -0.0066924714 -0.011979258 0.00031889955 -0.013847909
000110 4e 8b 2d bc a9 10 aa bc a7 48 43 3c ea d1 4c bc
       -0.010592295 -0.020759897 0.011919177 -0.012501219
000120 ec 62 cd 3b 42 71 a6 bb 3b 77 ba bb c6 e1 79 bc
       0.006267896 -0.0050794194 -0.005690483 -0.0152515825
000130 4e ba 23 3c 0a a2 40 3b 46 fd 3b bc d7 a4 78 3c
       0.009993149 0.0029393458 -0.011473959 0.01517602
000140 47 8e 35 3c 2a 85 bc bc 36 f1 ca 39 59 7e 5d bb
       0.011081285 -0.023012716 0.00038708159 -0.0033797233
000150 9f ce bd 3c 57 fe 8b 3b e7 6f 98 3c 41 eb 10 3d
       0.023169814 0.004272263 0.018608047 0.035380606
000160 09 41 8e 3c cd 45 7f bc 36 94 e5 3b a8 f4 87 bc
       0.017364996 -0.015580607 0.0070061935 -0.016596153
000170 61 b2 c5 bb 92 b4 7f 3c 07 e5 07 b8 39 2e d4 3c
       -0.0060332273 0.015607016 -3.2399807e-05 0.025900947
000180 a9 db 91 3b 1b e6 dc bc 03 26 09 3d 04 0a 6d 3c
       0.0044512344 -0.026965192 0.033483516 0.01446772
000190 c7 2b 8b 3c 75 8a 77 bb ec b4 07 3b 3f 1e 0e 3c
       0.016988648 -0.0037771736 0.0020707203 0.008674203
0001a0 ad c8 9e 3a a3 47 69 bc 29 d4 2c bc 54 44 0b 3c
       0.0012114249 -0.014238271 -0.01054863 0.008500177
0001b0 2a 71 2d 3c 28 b3 86 bc bf 26 4f bc 70 a8 58 bc
       0.010586062 -0.01644285 -0.012643515 -0.013223752
0001c0 6f 0e 16 bb 28 9b 50 ba 55 1c 84 3a 3f b3 ad bb
       -0.0022896787 -0.00079576904 0.0010079244 -0.005300909
0001d0 c4 43 1c bc e1 47 25 bd f5 07 f8 bb 9a 7b 6c 3a
       -0.009537641 -0.040351752 -0.007569308 0.00090211036
0001e0 83 b1 24 bb 33 e8 36 3c e3 b0 5b 3c ba 23 1a 3d
       -0.002513022 0.011163759 0.013408872 0.037631728
0001f0 3d 73 9d 3b 71 5a 9a 3a 5c fc 28 3c fc 77 ef 3c
       0.0048049972 0.0011776221 0.010314073 0.029232018
000200 0c 61 f0 3c a6 1b 04 bd fd 51 1b bb 36 87 2d 3c
       0.02934315 -0.03225293 -0.0023699992 0.010591319
000210 4d c5 7c 3b 03 a7 a1 bc a7 d4 c7 bc c0 12 67 3c
       0.003856975 -0.019732958 -0.024393393 0.014103591
000220 aa 21 87 3c d0 a0 50 3c 1f a5 9b 3c b0 75 fc bc
       0.016495544 0.012733653 0.018999634 -0.030817837
000230 2e 5c 9b bc fe 47 a4 39 00 e5 06 bd 26 1e 9b 3c
       -0.018964853 0.00031334156 -0.032933235 0.018935274
000240 47 42 a1 3c 34 27 a2 3c 66 b0 15 3d d7 ad d7 3c
       0.019684924 0.019794084 0.03654518 0.02632801
000250 fc 47 d7 bc e1 75 d8 3c fd cc 26 3c c6 76 a7 bb
       -0.026279442 0.026423397 0.010180709 -0.0051105944
000260 06 97 1e 3d 99 74 09 3d dd c5 12 bc 1d 4d a5 3c
       0.038718246 0.03355846 -0.008958307 0.020178372
000270 58 1a c7 bc 44 a2 d3 3b 84 2d a0 ba 75 bc 1c bd
       -0.024304554 0.0064585526 -0.0012220596 -0.038265664
000280 a3 6d 19 bc 20 57 ce bd 61 c6 f6 bd 9b 75 63 bd
       -0.009364518 -0.100752115 -0.120495565 -0.05553208
000290 78 b1 77 3c 85 f3 17 3c 9e 17 59 3c 02 e8 6d 3d
       0.015117995 0.009274368 0.01325026 0.058082588
0002a0 22 0d ab bc 1a ef 05 3d fe de 04 bd a6 fd 56 bd
       -0.020880286 0.03269873 -0.032439224 -0.05248799
0002b0 a1 69 73 bd 87 7a a5 bc e9 a0 8c bb 35 ff 5d bc
       -0.059426907 -0.020200027 -0.004291643 -0.013549616
0002c0 e1 5f 04 3b 1a 97 c2 3c 8c eb c3 3b de 0b dd 3b
       0.002019875 0.023753691 0.005979007 0.0067457994
0002d0 53 ef 4a 3c cf 73 b3 3c 41 38 37 3c 81 02 d3 bb
       0.012386161 0.021905808 0.011182846 -0.0064395075
0002e0 12 49 ac bb 7c b3 0a 3c 4e 82 39 bc de fc 9a 3c
       -0.005257734 0.008465644 -0.011322571 0.018919405
0002f0 b3 38 60 3b 65 a8 80 3c a9 29 59 bc 34 93 c0 3c
       0.0034213483 0.015705297 -0.013254561 0.023507692
000300 37 4a 87 3b 55 d9 86 3a 0c bd 86 bc 94 7b 42 bc
       0.00412872 0.0010288159 -0.016447566 -0.011870284
000310 7d 5a bd 3c 5a fc 6f bb a0 02 62 3d ab 63 3f 3d
       0.023114437 -0.003661892 0.055178285 0.04672591
000320 64 be 35 bc 3f 06 70 bc 6a 64 65 3b a5 71 cd 3c
       -0.011092756 -0.014649927 0.0035002478 0.025078604
000330 6f 46 65 3d 56 fd 56 3c 28 7c bf 3c e8 78 82 3c
       0.055975374 0.013121923 0.023374632 0.015926793
000340 1d d2 28 bd 30 5f 2a 3d 77 5e c7 3c 6a 2a 06 bd
       -0.041216005 0.041594684 0.024337037 -0.032755293
000350 25 2c 87 bd d1 16 61 3c 1f bd da 3c 92 fc 92 bb
       -0.06600217 0.01373835 0.026701508 -0.004485675
000360 05 58 3b bd 23 5e fe ba 67 46 b9 3d 44 b1 f6 3c
       -0.04573824 -0.0019406717 0.09046631 0.030113824
000370 2d 5d c0 bb c4 bb 13 3d ac ba 8e 3c a3 2f a9 3d
       -0.0058704824 0.03606774 0.017422996 0.08261039
000380 93 c9 7f 3b 59 da 87 bc bb fa 26 3d a7 80 23 bd
       0.003903006 -0.016583608 0.04076646 -0.039917614
000390 34 14 30 3a f0 17 2b 3c 98 7c 07 bd ba 53 07 3d
       0.00067168777 0.010442719 -0.033077806 0.033038832
0003a0 ac d2 0c bd 5e 84 5d 3d 25 ed 53 bb 53 c4 19 3c
       -0.0343806 0.054081313 -0.0032337394 0.009385186
0003b0 21 11 3d 3d a9 a5 1a 3c da be 19 bd 04 5a 20 bd
       0.046158914 0.0094389105 -0.037535526 -0.039148346
0003c0 fe 95 9b bb c1 91 82 bc ba c8 a8 3c cc 93 21 3c
       -0.004748105 -0.015938642 0.020603526 0.009861898
0003d0 43 ff c0 bb 6c c2 d8 bc 9e 78 87 3c 81 2e 30 bd
       -0.0058898046 -0.026459895 0.016537007 -0.0430131
0003e0 7d 14 98 3b ad fc 46 b9 58 08 b5 b9 e2 a2 90 bd
       0.0046411143 -0.0001897688 -0.00034529227 -0.070623174
0003f0 cc 68 6b bd b0 73 fb bb 20 c2 32 bd cb c9 9d 3c
       -0.05747299 -0.007673703 -0.043642163 0.019261261

bias f4 [64]
000000 52 bb a8 3b d9 40 a5 3b 90 e6 48 bd ac 7e 39 3d
       0.0051492834 0.005043131 -0.049048007 0.04528682
000010 90 87 dc bc ce 90 f5 bb 06 2f b6 bb de c7 16 3d
       -0.02692011 -0.0074940687 -0.005559805 0.036811702
000020 c5 c2 5f bc b1 c4 d7 3c 75 ed 9d bc df 70 9c 3b
       -0.0136572765 0.026338907 -0.019278267 0.0047741975
000030 a1 c0 b9 3b 72 25 ae 3c d7 df 60 3d ec cd 91 bb
       0.005668715 0.02125809 0.05490097 -0.0044495966
000040 29 ac 68 3b 06 11 0c 3a bc 1a 04 3c ca 4a 90 3c
       0.0035503006 0.0005343113 0.008063015 0.017613787
000050 fd 76 72 3c 20 ce a3 bc 65 d2 02 bd 36 4c 31 3c
       0.014798877 -0.019995749 -0.03193893 0.010821393
000060 02 6f 4e bc d1 82 42 3c 16 65 32 3c f0 4e b0 bc
       -0.0125997085 0.011872009 0.010888359 -0.021522015
000070 12 ef 2b 3d d1 44 96 bc f0 80 48 3b ab b1 10 bd
       0.041976042 -0.018343361 0.003059443 -0.035325687
000080 1e b0 73 3b fd 69 b4 bb a7 e8 6a bc 83 30 c8 bc
       0.0037183831 -0.005505799 -0.014337695 -0.024437195
000090 20 69 32 bd 1d 7e 06 3c 0c 53 ee bc c8 11 1a 3d
       -0.043557286 0.008208779 -0.029092334 0.037614614
0000a0 a4 3b 85 bc 9c 8d 21 bd e8 48 69 bc 6e e1 82 3c
       -0.01626379 -0.03944169 -0.014238574 0.015976634
0000b0 ab 58 d6 3a 66 16 a5 bc 5e 44 2e bc 85 aa 6a bc
       0.0016353329 -0.020152282 -0.010636417 -0.014322882
0000c0 bb 42 11 bc 9a 5a c6 bc 9d d8 07 bd 15 d2 6e bc
       -0.008866007 -0.024213124 -0.033165563 -0.014576455
0000d0 00 6d db 3c a2 ff 0b 3d 0a 87 9a bb 7d ee 04 bd
       0.026785374 0.034179337 -0.004715805 -0.032454003
0000e0 72 af 7c 3c 03 35 3c 3c fc fd da 3b ab c4 1b bd
       0.015422689 0.011487248 0.0066831093 -0.038029354
0000f0 84 eb a6 3b 9c 89 82 3c 4c 60 a8 bb 7f 73 1e ba
       0.0050939936 0.015934758 -0.0051384326 -0.0006044432

weight f4 [20, 64]
000000 08 54 89 3b 95 ce 2c bd 81 4a 93 be 1b 24 b1 3e
       0.0041909255 -0.0421892 -0.2876778 0.3459786
000010 86 a6 0e 3d 12 65 18 3e dd 6b ef be 93 2a 8b 3e
       0.034826778 0.14882305 -0.4676198 0.2718092
000020 8c d6 ab 3e 7f 74 98 3e ca 74 9d 3e 10 95 85 bc
       0.33562124 0.2977638 0.30753165 -0.01630643
000030 4f 4f 8e 3d 45 f0 b0 be 28 5e 01 3f a8 46 d2 bb
       0.06948721 -0.3455831 0.50534296 -0.0064171143
000040 3c e5 b7 bc eb 77 be be c3 a0 21 3e 7e 22 4e 3c
       -0.022448175 -0.37200865 0.15783982 0.012581466
000050 50 1c ae be b0 52 8c 3c 59 4f 94 be f7 9d 90 be
       -0.34005976 0.017129272 -0.28966787 -0.28245518
000060 08 18 1d bc 04 1e a4 3b fa af 10 3f 12 d6 d8 be
       -0.009588249 0.005008461 0.5651852 -0.42350823
000070 11 26 20 bd 0d 00 9d 3e ce 5e c7 be 75 13 cf be
       -0.039098803 0.306641 -0.38939518 -0.40444532
000080 1f 66 74 3c cb 1c 9d 3e 8b 69 ec bb d7 6f eb ba
       0.014916926 0.3068603 -0.00721473 -0.0017962408
000090 55 1d 64 3c 0e e6 e9 be d6 31 d2 3c 11 a4 94 be
       0.013923009 -0.4568333 0.02565853 -0.29031423
0000a0 be 05 52 3c 13 6c 05 3d df 46 65 3e 6f 0e f1 be
       0.012818752 0.03257377 0.22390316 -0.47081324
0000b0 55 1f 7b 3c eb 9e ea be fd da 4d 3d 7f 60 9c 3e
       0.015327294 -0.4582437 0.05025767 0.3054237
0000c0 b9 a0 19 3d f7 4d d2 3c 28 9e d9 3a ba 40 3b bd
       0.037506793 0.025671942 0.001660292 -0.045716025
0000d0 dd 55 fd bc 26 b4 3f 3e 29 06 3b bc 1d 90 b9 3e
       -0.030924732 0.18721065 -0.011415043 0.36242762
0000e0 4b d2 35 bb fa 65 c0 3c eb 80 0f bd 5c 63 b8 bd
       -0.0027743753 0.023486126 -0.035035055 -0.09003326
0000f0 53 d8 ab be dc 27 c4 3e 64 8b 09 3d d3 dd 9c bb
       -0.3356348 0.3831166 0.0335802 -0.0047871857
000100 26 2e 27 3d d3 28 42 3d b2 99 81 be a5 b2 cc 3e
       0.040815495 0.047402214 -0.25312573 0.39980045
000110 6d ee 5f 3d 79 68 ae be 3f 8e 7e be 51 b5 50 3d
       0.05467074 -0.3406408 -0.2485895 0.050954167
000120 9d 05 ba be d2 ad f5 3e f4 70 05 be ff ab 1e 3d
       -0.36332408 0.47984177 -0.1303137 0.038738247
000130 d3 31 79 3e ab 3c bf 3e 6c 61 f3 3e 9e bb 96 bc
       0.24335413 0.37350973 0.47535264 -0.01840001
000140 53 41 65 bb 87 e7 da 3e 03 89 93 3e 5e 66 e6 3c
       -0.0034981563 0.42754766 0.2881547 0.028124984
000150 a4 c6 c9 3e 68 49 30 bd de 29 d1 be 6c 80 d2 3e
       0.39409363 -0.043038756 -0.40852255 0.41113603
000160 bd af 00 bb cc ed b6 3c b2 82 ab be 15 d6 b3 be
       -0.0019635998 0.022330187 -0.3349815 -0.3512427
000170 3d 8b 36 bd 81 ac a1 be 4a 26 95 3e 75 7a d7 be
       -0.04456638 -0.31576923 0.29130775 -0.42085615
000180 25 77 1b 3d 79 92 d1 be b9 eb 64 3a 04 f9 12 bd
       0.037955422 -0.40932062 0.0008732635 -0.03588201
000190 ab 42 ab bb 31 19 dd 3e 69 04 ce 3c 80 2e 6c 3e
       -0.0052264533 0.43183282 0.025148587 0.23064613
0001a0 01 0d c1 3c fc 51 c6 bc 1d 9a c0 be 44 e4 69 3e
       0.023565771 -0.024209015 -0.3761758 0.22840983
0001b0 e6 83 24 b8 b9 5a aa 3e e6 d3 ed bb db 31 b0 be
       -3.9223487e-05 0.3327234 -0.0072579263 -0.34413037
0001c0 e4 61 91 3c a7 70 bb bd c2 97 c0 b8 fc 13 08 3c
       0.017746873 -0.09152346 -9.1835405e-05 0.008305546
0001d0 e0 0e b2 bb 5a 75 2b be ca 35 ea bc ea c6 a2 be
       -0.005433902 -0.16743985 -0.028590102 -0.31792384
0001e0 d9 0e 8b 3c 3e 38 00 3d 25 35 e7 3a c4 e3 99 be
       0.016974853 0.031303637 0.001763974 -0.30056584
0001f0 8e 2c 20 3c e1 7a aa be b1 a1 ae 3b 69 8f f6 3a
       0.009776248 -0.33296874 0.0053293337 0.001881105
000200 0e bb 77 3c 0c 11 d9 b9 c0 e6 89 be 97 44 c3 3e
       0.015120281 -0.00041402166 -0.2693386 0.38138267
000210 8f 05 57 3b 46 8e 92 be 6f d9 da be 64 7f 88 3e
       0.003280971 -0.2862417 -0.42744014 0.2665969
000220 b4 aa c0 be 36 84 91 be 4a a4 da be d5 4a 26 3c
       -0.37630236 -0.2842118 -0.42703468 0.010149677
000230 e6 ad 4c 3e 54 b5 5b be eb 7f b0 be 48 b6 09 bd
       0.19988212 -0.2145589 -0.34472594 -0.033621103
000240 c1 1a dd 3c e2 8d cb be da 6a 8c 3e 6a 9a a8 bc
       0.026990296 -0.39756685 0.2742527 -0.020581443
000250 ce 52 89 be 94 69 96 3c 39 d5 be 3e 94 76 aa be
       -0.26820987 0.01836089 0.3727205 -0.33293593
000260 98 c0 a9 3c 57 bd 08 3b 6a a0 aa be 17 ea c8 3e
       0.020721719 0.0020864808 -0.3332551 0.39241096
000270 d6 1c 58 bc 17 51 e2 3e 9e b8 ba be 4f fb bc be
       -0.013190469 0.44202492 -0.36468977 -0.36910483
000280 43 07 0c 3d 08 67 df bd ce af 56 bd 12 ca f5 bc
       0.034186613 -0.109083235 -0.052413754 -0.030003581
000290 a1 e4 50 bd 4c 50 db 3e 01 54 1e bd e9 a4 8c 3e
       -0.050999288 0.428347 -0.03865433 0.27469566
0002a0 86 6b 65 3b af ff ee 3c bd 0f 64 3e 8d 38 a4 3e
       0.0035006716 0.029174654 0.22271629 0.32074395
0002b0 4d 4d 77 3b 29 76 c1 be aa 9b 26 bd f9 83 a3 3e
       0.0037735284 -0.37785462 -0.040675797 0.31936625
0002c0 6e 47 a1 3c f0 75 d4 3b a9 26 89 3c 4a f7 81 bc
       0.01968738 0.006483786 0.016742067 -0.015864987
0002d0 83 28 39 b8 d4 52 bb bd 72 66 bf bb 47 8a 2b be
       -4.4145167e-05 -0.091466576 -0.00584107 -0.16751967
0002e0 e5 2e 8e bc 79 de 8f 3c 41 13 0c 3b 77 88 b9 be
       -0.017356345 0.017562138 0.002137378 -0.36236927
0002f0 fb 4a 1d be 65 e4 b8 be 4a fa a4 3c 9e d3 8c bb
       -0.15360634 -0.3611175 0.020138878 -0.0042976877
000300 3d d4 69 3b dc 4d 62 3c 5b ae ba 3e ae 43 a4 3e
       0.0035679482 0.013812508 0.36461148 0.32082886
000310 51 33 fe 3c c4 db 81 3e 55 ed a9 3e c8 88 35 be
       0.031030329 0.2536298 0.33188882 -0.17727959
000320 29 67 9d 3e 96 3c 98 be 45 95 9d 3e e8 b6 c7 3c
       0.30742767 -0.29733723 0.30777946 0.024379209
000330 40 11 e1 bd 93 a4 b9 3e 65 1c ab be d5 3f b0 bb
       -0.10989618 0.36258373 -0.334201 -0.005378703
000340 2c 38 32 3d bc f1 d6 be 8c ee 81 3e 43 46 01 3d
       0.0435106 -0.41981304 0.2537731 0.031561147
000350 d6 21 56 be a5 da af 3b 5f b9 aa be a8 40 9f be
       -0.20911345 0.0053666406 -0.33344552 -0.31104016
000360 94 e1 22 bc 6a e9 66 3b bd 4c ad be 97 64 ce 3e
       -0.009941477 0.003523434 -0.3384761 0.4031112
000370 9a 22 ff 3a ed 74 d5 3e 8c f3 c9 be d9 80 c3 3e
       0.0019465268 0.4169077 -0.39443624 0.3818424
000380 dd 8b 3b 3c 8a 98 ad be 13 3c 70 ba 70 da 7e bd
       0.01144692 -0.3390544 -0.0009164225 -0.062220037
000390 ff 96 ac 3b 1f fd e3 3e e6 8c 40 3d dd f6 a8 be
       0.0052670236 0.44529054 0.04700937 -0.33000842
0003a0 22 74 0b 3d b9 a3 25 3a 04 62 85 3e 88 3d ac 3e
       0.0340463 0.0006318647 0.26051342 0.33640695
0003b0 ee ad f6 3c 86 e4 6b 3e f6 27 1c bd 87 35 ae bd
       0.030112233 0.23036394 -0.038124047 -0.08506303
0003c0 9e dc 8e 3b c4 f7 5c bd ff 8d 8f bb 17 8a ec 3c
       0.0043597957 -0.053947225 -0.004380941 0.02887444
0003d0 3a f3 9f bb 64 ce 85 be 75 0e 10 bd 07 88 65 3e
       -0.00488129 -0.26134026 -0.035170037 0.22415172
0003e0 9c f6 19 bd 91 e8 b1 bb 8d a7 38 3d 42 8e 21 be
       -0.0375887 -0.0054293354 0.045081664 -0.15776923
0003f0 f0 d2 ab 3e a4 a2 b9 be ba 73 2f bc 3d 73 5a bc
       0.3355937 -0.36256897 -0.010708744 -0.013333139

bias f4 [20]
000000 ab 53 13 3e b7 f8 0d 3e f5 3c 37 3d 34 d8 3f be
       0.14387386 0.13864408 0.044735868 -0.18734819
000010 db 34 3b bd 00 83 85 3d 0d 9e ca bd 25 d8 cd bb
       -0.045704704 0.06519127 -0.09893427 -0.00628187
000020 88 96 a3 3e 2c dd ac 3b 1b 84 93 bd fa 3d 33 3e
       0.31950784 0.005275389 -0.072029315 0.17504111
000030 82 30 4f 3d d7 79 22 bd c5 2c 97 bd fd 6c 4d bd
       0.05058337 -0.039666977 -0.07381586 -0.050152767
000040 0b 93 84 be 8a e9 5b 3d 20 d5 87 3e 47 da 0f 3b
       -0.25893435 0.053689517 0.2652979 0.0021950172
